…
ser/.config/Ultralytics/Arial.ttf': 95% ━━━━━━━━━━━─ 720.0/755.1KB 25.1KB/s 17.0s<1.4s[KDownloading https://ultralytics.com/assets/Arial.ttf to '/home/schooluser/.config/Ultralytics/Arial.ttf': 97% ━━━━━━━━━━━╸ 736.0/755.1KB 23.3KB/s 17.8s<0.8s[KDownloading https://ultralytics.com/assets/Arial.ttf to '/home/schooluser/.config/Ultralytics/Arial.ttf': 100% ━━━━━━━━━━━━ 755.1KB 42.3KB/s 17.8s
Overriding model.yaml nc=80 with nc=1

                   from  n    params  module                                       arguments                     
  0                  -1  1       464  ultralytics.nn.modules.conv.Conv             [3, 16, 3, 2]                 
  1                  -1  1      4672  ultralytics.nn.modules.conv.Conv             [16, 32, 3, 2]                
  2                  -1  1      6640  ultralytics.nn.modules.block.C3k2            [32, 64, 1, False, 0.25]      
  3                  -1  1     36992  ultralytics.nn.modules.conv.Conv             [64, 64, 3, 2]                
  4                  -1  1     26080  ultralytics.nn.modules.block.C3k2            [64, 128, 1, False, 0.25]     
  5                  -1  1    147712  ultralytics.nn.modules.conv.Conv             [128, 128, 3, 2]              
  6                  -1  1     87040  ultralytics.nn.modules.block.C3k2            [128, 128, 1, True]           
  7                  -1  1    295424  ultralytics.nn.modules.conv.Conv             [128, 256, 3, 2]              
  8                  -1  1    346112  ultralytics.nn.modules.block.C3k2            [256, 256, 1, True]           
  9                  -1  1    164608  ultralytics.nn.modules.block.SPPF            [256, 256, 5, 3, True]        
 10                  -1  1    249728  ultralytics.nn.modules.block.C2PSA           [256, 256, 1]                 
 11                  -1  1         0  torch.nn.modules.upsampling.Upsample         [None, 2, 'nearest']          
 12             [-1, 6]  1         0  ultralytics.nn.modules.conv.Concat           [1]                           
 13                  -1  1    119808  ultralytics.nn.modules.block.C3k2            [384, 128, 1, True]           
 14                  -1  1         0  torch.nn.modules.upsampling.Upsample         [None, 2, 'nearest']          
 15             [-1, 4]  1         0  ultralytics.nn.modules.conv.Concat           [1]                           
 16                  -1  1     34304  ultralytics.nn.modules.block.C3k2            [256, 64, 1, True]            
 17                  -1  1     36992  ultralytics.nn.modules.conv.Conv             [64, 64, 3, 2]                
 18            [-1, 13]  1         0  ultralytics.nn.modules.conv.Concat           [1]                           
 19                  -1  1     95232  ultralytics.nn.modules.block.C3k2            [192, 128, 1, True]           
 20                  -1  1    147712  ultralytics.nn.modules.conv.Conv             [128, 128, 3, 2]              
 21            [-1, 10]  1         0  ultralytics.nn.modules.conv.Concat           [1]                           
 22                  -1  1    463104  ultralytics.nn.modules.block.C3k2            [384, 256, 1, True, 0.5, True]
 23        [16, 19, 22]  1    790431  ultralytics.nn.modules.head.Segment26        [1, 32, 64, 1, True, [64, 128, 256]]
[W618 17:09:11.164482804 NNPACK.cpp:61] Could not initialize NNPACK! Reason: Unsupported hardware.
YOLO26n-seg summary: 309 layers, 3,053,055 parameters, 3,053,055 gradients, 10.2 GFLOPs

Transferred 740/844 items from pretrained weights
[34m[1mDDP:[0m debug command /data_8tb_01/yejianheng/miniconda3/envs/glass/bin/python -m torch.distributed.run --nproc_per_node 3 --master_port 24081 /home/schooluser/.config/Ultralytics/DDP/_temp_35j_97qd140263805844928.py
…
